…
으므로 input shape은 (width, height, channels)기준으로 (28, 28, 1)이 됩니다. pytorch는 input shape을 (channels, width, height)으로 받으니 summary의 입력은 (1, 28, 28)로 줍니다.\nsummary 함수를 사용하게 되면 아래와 같은 결과를 확인할 수 있습니다.\n해당 결과는 기본적인 네트워크 구성뿐만 아니라 Number of Parameters Input size, Forward/backward pass size, parameters size, Estimated Total Size에 대한 정보를 출력해줍니다.\nsummary(model, (1, 28, 28))\n\n>>\n----------------------------------------------------------------\n        Layer (type)               Output Shape         Param #\n================================================================\n            Conv2d-1           [-1, 10, 24, 24]             260\n            Conv2d-2             [-1, 20, 8, 8]           5,020\n         Dropout2d-3             [-1, 20, 8, 8]               0\n            Linear-4                   [-1, 50]          16,050\n            Linear-5                   [-1, 10]             510\n================================================================\nTotal params: 21,840\nTrainable params: 21,840\nNon-trainable params: 0\n----------------------------------------------------------------\nInput size (MB): 0.00\nForward/backward pass size (MB): 0.06\nParams size (MB): 0.08\nEstimated Total Size (MB): 0.15\n----------------------------------------------------------------\n\n\n이 저작
…
